last_brain.pth (torch, 318178 bytes, 24 tensors)

fc1.weight f4 [128, 5]
0	0x3eee0d76	0.46494645
1	0x3dd19c97	0.10234945
2	0x3eaf323d	0.34218016
3	0x3f79d268	0.9758668
4	0xbf6c2342	-0.922413
5	0xbe29d55b	-0.16585295
6	0x3e64f5e4	0.22359425
7	0x3e711874	0.23544484
8	0xbf55a556	-0.8345541
9	0x3fb26179	1.3935996
10	0xbe9681e0	-0.29395962
11	0xbdc684c7	-0.09693294
12	0xbf9a9e6d	-1.2079598
13	0x3e92ce66	0.28673095
14	0x3d7c9a50	0.0616706
15	0xbec87387	-0.3915064
16	0x3c18a221	0.009315998
17	0xbdb78153	-0.089602135
18	0x3c3e0dcf	0.011599972
19	0xbc8e0770	-0.01733753
20	0xbf43e461	-0.76520354
21	0x3ec7a700	0.38994598
22	0xc0b02682	-5.5047007
23	0xbd67bc48	-0.056576043
24	0xbed8b120	-0.42322636
25	0xbe966c12	-0.29379326
26	0xbeef589d	-0.46747294
27	0xbd45db46	-0.04830482
28	0x3bc8f63e	0.00613287
29	0x3e7e8d68	0.2485863
30	0x3f16c883	0.58899707
31	0xbef8d10a	-0.48596984
32	0xbe4547bb	-0.19265644
33	0xbda1df18	-0.0790388
34	0x3da54776	0.08070271
35	0xbde70a56	-0.11281268
36	0x3de46f78	0.111540735
37	0xbd822d9f	-0.06356358
38	0xbd90a3bf	-0.07062482
39	0x3f034fee	0.5129384
40	0xbf5c3721	-0.8602162
41	0xc011decb	-2.2792232
42	0x3f40a911	0.75257975
43	0x3e5a578e	0.21322462
44	0xbd088e2f	-0.03333872
45	0x3d03df9a	0.032195665
46	0xbe9c7e1d	-0.30564967
47	0xbe9091fa	-0.2823637
48	0x3e778cd2	0.24174812
49	0xbec1b554	-0.37833655
50	0xbde74bf7	-0.11293786
51	0xc0da0118	-6.8126335
52	0x3f70e5b4	0.941005
53	0x3ee614a6	0.44937629
54	0xbc0152f5	-0.007893314
55	0x3a0e50ad	0.0005428892
56	0xbe624f95	-0.2210067
57	0xbf0071f4	-0.5017388
58	0x3db5846b	0.08863147
59	0x3d58c669	0.052923594
60	0x3e133e77	0.14379297
61	0x3e364607	0.17800151
62	0x3e91cdf0	0.2847743
63	0x400475f7	2.0697
64	0xc0072fd7	-2.112295
65	0xc067689c	-3.6157598
66	0x3d18bd08	0.03728965
67	0xbf4693f7	-0.77569526
68	0x3d8c28e0	0.06843734
69	0x3bcd4306	0.0062640933
70	0x3ea6daed	0.32588902
71	0x3db89d97	0.09014433
72	0xbf211a60	-0.6293087
73	0xbec29798	-0.38006282
74	0x3f29452f	0.6612119
75	0xbeb13600	-0.3461151
76	0xbee64b2f	-0.44979236
77	0x3db7cd7b	0.08974739
78	0xbf80df0c	-1.0068069
79	0x3f076035	0.52881175
80	0x3e81c2d0	0.25343943
81	0xbbcd904f	-0.0062733064
82	0x3e7ded68	0.24797595
83	0xbe9f6212	-0.3112951
84	0x3d8294c9	0.06376035
85	0x3e809b82	0.25118643
86	0xbf714e7e	-0.94260395
87	0x3f4e8d53	0.80684394
88	0xbd5a9dba	-0.053373076
89	0xbe065afc	-0.13120645
90	0x3e426802	0.18984988
91	0xbe9a70f5	-0.30164304
92	0xbfd4f829	-1.6638232
93	0xbbceae32	-0.006307387
94	0x3eff1c63	0.49826345
95	0x3f0382fc	0.5137174
96	0xbe74faf3	-0.23923855
97	0x3dc90d82	0.098170295
98	0x3f043e22	0.5165731
99	0x3e9ca1c4	0.30592167
100	0xbf7f978d	-0.99840623
101	0x3f227e97	0.6347441
102	0xbe1f7ab8	-0.15574157
103	0xbe1d3078	-0.1535052
104	0xbea4c9b9	-0.32185152
105	0xbf6c6f48	-0.923573
106	0x3ead8c0f	0.3389592
107	0xbf8043c6	-1.0020683
108	0x3f07f5fa	0.53109705
109	0xbf321c12	-0.6957408
110	0xbf167fd2	-0.5878879
111	0xbdb15447	-0.08658653
112	0x3f2294e6	0.6350845
113	0xbd2c13b3	-0.042010974
114	0x3f37ed33	0.7184631
115	0xbea64bfa	-0.3247984
116	0x3aa663ce	0.0012694539
117	0x3eb7424c	0.35792768
118	0xbf25a52f	-0.64705175
119	0x3f7120dd	0.9419077
120	0x3ebea8d8	0.37238193
121	0x3ee51697	0.44743797
122	0xbf1f37e5	-0.62194663
123	0xbf10a72f	-0.565051
124	0x3da55cc8	0.08074337
125	0xbec8bd2c	-0.39206827
126	0x3ec9b63d	0.3939685
127	0x3e78fbab	0.24314754
128	0x3fa3dc51	1.280161
129	0xbf85be87	-1.0448769
130	0xbe289a6f	-0.16465162
131	0xbef25869	-0.47333077
132	0xbf4af4cd	-0.79279786
133	0xbed678d3	-0.41889057
134	0x3e935f65	0.28783718
135	0xbea31ec6	-0.31859416
136	0xbf374467	-0.7158875
137	0x3f224248	0.6338239
138	0xbf1f0d69	-0.6212984
139	0xbd85c628	-0.06531936
140	0xbf9ff6b0	-1.2497158
141	0x3be6bd6f	0.007041625
142	0x3f21be84	0.6318133
143	0x3e8147f7	0.25250217
144	0xbea932d2	-0.33046585
145	0xbec2add9	-0.3802326
146	0xbf079bee	-0.52972305
147	0xbd83514b	-0.0641199
148	0xbe6c9acd	-0.23105927
149	0x3d32aceb	0.04362194
150	0x3f2d9805	0.6781009
151	0x3e21213a	0.15735331
152	0xbe9aa2c5	-0.30202308
153	0x3e37fce5	0.17967565
154	0x3e5edb60	0.21763372
155	0x3d956f8a	0.07296665
156	0x3e48fbd5	0.19627316
157	0x3e55e290	0.20887208
158	0x40076ac4	2.1158915
159	0xbfbcd63d	-1.475288
160	0x3f318a8a	0.6935202
161	0xbf333fe3	-0.7001936
162	0x3e1dad6f	0.15398191
163	0x3f7a05ed	0.9766529
164	0xbf5cf325	-0.8630851
165	0x3eb5a987	0.35480902
166	0xbf0f284c	-0.55920863
167	0xbe4c2cc6	-0.19938955
168	0x3daab614	0.0833551
169	0x3e905091	0.28186467
170	0xbe33a679	-0.17543973
171	0x3e94619d	0.28980723
172	0x3d5979b5	0.053094584
173	0x3f59fd38	0.85152006
174	0xbf12f974	-0.57411885
175	0xbf743964	-0.9540007
176	0x3e0354ab	0.12825267
177	0xbe30d77d	-0.17269702
178	0x3f2d66c1	0.67734915
179	0xbf8d805b	-1.1054796
180	0xbde93602	-0.11387254
181	0x3f31b351	0.6941424
182	0xbe75bcef	-0.23997854
183	0x4019c13c	2.402419
184	0xc03ca6f6	-2.9476905
185	0xbcb69862	-0.022289459
186	0xbe8583bf	-0.26077077
187	0xbe13cb37	-0.14432989
188	0x3e873b5a	0.2641247
189	0xbeea5ab4	-0.45772326
190	0x3f2912d9	0.66044384
191	0x3e873d8b	0.2641414
192	0xc02c2f3b	-2.6903827
193	0xbe6b0742	-0.22951987
194	0xbdd83fed	-0.10559068
195	0xbf234ae5	-0.63786155
196	0x3db5de56	0.08880298
197	0x3de83fae	0.11340271
198	0x3f52a067	0.82276005
199	0xbf458291	-0.77152354
200	0xc0178de4	-2.3680353
201	0xbfdd86f6	-1.7306812
202	0x3de47ce4	0.111566335
203	0x3e2c4d2c	0.16826314
204	0x3e2dd61e	0.1697621
205	0xbe3cfaae	-0.18455002
206	0x3ee59422	0.4483958
207	0x3eec956c	0.4620775
208	0xbf379b58	-0.7172141
209	0x3f60eae4	0.87858415
210	0xbff989e6	-1.9495208
211	0xc0ef3372	-7.47503
212	0x3e19935b	0.14997618
213	0xbe5160e1	-0.20447113
214	0xbe1321ab	-0.14368312
215	0x3f5257cc	0.8216522
216	0xbf818ce4	-1.0121121
217	0xbe0de078	-0.1385516
218	0x3ec10527	0.37699243
219	0xbf525df6	-0.82174623
220	0xbec0c63e	-0.37651247
221	0x3d039eb0	0.032133758
222	0xbed328b8	-0.41242003
223	0xbe9c0470	-0.30472136
224	0xbebd73be	-0.37002367
225	0x3e6ac079	0.22924985
226	0xbeae30ab	-0.34021506
227	0x3ebfd008	0.37463403
228	0xbf80c080	-1.0058746
229	0x3f50d3a6	0.8157295
230	0x3e1f8f69	0.1558205
231	0x3e2dcb54	0.16972095
232	0xbfb26b42	-1.3938982
233	0xbf18b357	-0.5964865
234	0x3ef04259	0.4692562
235	0xbec45925	-0.38349262
236	0x3f452059	0.77002484
237	0x3f2b9993	0.6703121
238	0x3e35fa75	0.17771323
239	0xbeb39a87	-0.35078833
240	0x3f29137d	0.6604536
241	0xbf43fab7	-0.76554435
242	0xbe1ea556	-0.15492758
243	0x3d2250fc	0.039628014
244	0x3eefbd80	0.46824265
245	0xbf07464a	-0.5284163
246	0x3edd6f73	0.43249092
247	0x3ee53aa9	0.44771317
248	0xbe18c583	-0.14919095
249	0xbebfd560	-0.3746748
250	0xbcdfce7b	-0.027320137
251	0xbfdb6493	-1.7140068
252	0xbcbf7042	-0.023368958
253	0xbf28c16e	-0.6592015
254	0xbd8b0ec0	-0.06789923
255	0x3d976070	0.07391441

fc1.bias f4 [128]
0	0xbf3e1eaf	-0.7426557
1	0xbfa73a19	-1.3064605
2	0x3e868c90	0.26279116
3	0xbdfd7a02	-0.12376787
4	0xbeacc6d5	-0.33745447
5	0x3f14920a	0.5803534
6	0xbd619b56	-0.05507978
7	0xbf8334ba	-1.0250466
8	0x3d772b9c	0.060344324
9	0xbf74ad95	-0.95577365
10	0x3e42d853	0.19027834
11	0xbd7511a1	-0.059831265
12	0xbeb63881	-0.35589984
13	0x3dfa9cb2	0.122369185
14	0xbeab710f	-0.33484694
15	0x3f337b7e	0.7011031
16	0xbfa53376	-1.290633
17	0xbeb33e37	-0.35008404
18	0xbf175f3c	-0.5912969
19	0x3d9a27ff	0.0752716
20	0x3e1da62b	0.1539542
21	0xbe00f5d6	-0.12593779
22	0xbd321b1c	-0.043482885
23	0xbf7015f5	-0.93783504
24	0xbf101dce	-0.5629548
25	0xbf954d8d	-1.1664292
26	0x3e321f43	0.17394738
27	0x3d307850	0.04308349
28	0x3ddef19f	0.10885929
29	0x3f38602c	0.72021747
30	0xbf4adb8d	-0.7924126
31	0xbf55ffae	-0.8359326
32	0xbe901915	-0.28144136
33	0x3d4acb64	0.049510375
34	0xbf41f7bf	-0.75768656
35	0x3d9a115f	0.075228445
36	0xbf1aac7c	-0.6041944
37	0xbf468888	-0.7755208
38	0xbe7e1255	-0.2481168
39	0xbe979030	-0.29602194
40	0x3f2fd146	0.686787
41	0xbf25ecef	-0.64814657
42	0xbe90a6c8	-0.28252244
43	0xbdbac09c	-0.091187686
44	0xbecc9905	-0.39960495
45	0xbf334fdf	-0.7004375
46	0xbebe2d66	-0.3714401
47	0xbee5446b	-0.4477876
48	0xbe088a4f	-0.1333401
49	0xbf3b9de3	-0.7328779
50	0xbf17a617	-0.5923781
51	0xbf5027e9	-0.813109
52	0xbeb02cf4	-0.34409297
53	0xbf9ecf18	-1.240695
54	0x3e871c65	0.2638885
55	0xbf0ccbd5	-0.54998523
56	0xbdefe1eb	-0.11713012
57	0xbf1d7310	-0.61503696
58	0x3e99da66	0.30049437
59	0xbe8a9c7d	-0.27072516
60	0xbf8120d0	-1.0088139
61	0xbfcf693c	-1.620399
62	0xbd52b4d8	-0.051441997
63	0xbeb3605c	-0.35034454
64	0x3d53e390	0.051730692
65	0xbdc07373	-0.0939702
66	0xbf6f838c	-0.935601
67	0xbf224db2	-0.63399804
68	0xbe162c9f	-0.14665459
69	0xbe246dcc	-0.16057509
70	0xbec6dd7b	-0.3884085
71	0xbdc89c65	-0.09795455
72	0xbe56c957	-0.20975243
73	0xbf3d529b	-0.7395417
74	0xbf01d119	-0.5070968
75	0xbfa16688	-1.2609415
76	0xbf827142	-1.0190814
77	0xbf044f98	-0.5168395
78	0x3e88a07a	0.26684934
79	0x3f050006	0.5195316
80	0x3e429d8d	0.19005413
81	0xbdd5d03d	-0.10440109
82	0xbe2d2fa1	-0.169127
83	0x3f212039	0.6293979
84	0xbf3a4957	-0.7276816
85	0xbec9f773	-0.394466
86	0xbebdb523	-0.3705226
87	0xbe4132b4	-0.18866998
88	0xbddbf4b0	-0.1074003
89	0xbe60f533	-0.21968536
90	0x3df84d04	0.121240646
91	0xbe6741aa	-0.22583643
92	0xbef6adc6	-0.48179454
93	0x3f3eebf1	0.7457877
94	0xbf20cd70	-0.6281347
95	0xbf464b19	-0.7745834
96	0xbf058ee8	-0.5217118
97	0xbe1d8f66	-0.15386733
98	0xbf29380a	-0.66101134
99	0xbede7290	-0.4344678
100	0x3de6b10f	0.1126424
101	0xbdd55b2c	-0.1041778
102	0xbf03bef8	-0.5146327
103	0xbf604b12	-0.8761455
104	0xbedba2b1	-0.4289756
105	0xbf020009	-0.50781304
106	0xbf80f2ae	-1.007406
107	0xbf53169d	-0.8245638
108	0xbf1d085e	-0.6134089
109	0xbf5ae442	-0.85504544
110	0x3f4383d7	0.76373047
111	0xbe84c982	-0.25934988
112	0xbf684f19	-0.90745693
113	0xbddd2df8	-0.107997835
114	0xbf5aa9a3	-0.85415095
115	0x3f2910ad	0.6604107
116	0x3cc8b1fa	0.024498928
117	0xbf5e5c54	-0.8685963
118	0x3d0a0a2f	0.033701118
119	0xbf35d1e7	-0.7102341
120	0x3eab300c	0.33435094
121	0xbc6002f1	-0.013672576
122	0xbf5a5b90	-0.85295963
123	0xbebd11a6	-0.36927527
124	0xbed33ead	-0.41258755
125	0xbde22558	-0.11042279
126	0xbed6ce16	-0.41954106
127	0xbe1f6a0e	-0.155678

fc2.weight f4 [128, 128]
0	0xbd8cd5c3	-0.06876709
1	0xbd948fae	-0.07253967
2	0xbd92f875	-0.07176296
3	0xbd08c3b9	-0.03338978
4	0xbd2ff448	-0.042957574
5	0x3c83b844	0.016079076
6	0x3c952bd4	0.018209375
7	0xbd8fa2b2	-0.070134535
8	0x3d0f0a0f	0.034921702
9	0x38462800	4.724413e-05
10	0x3d70b584	0.058766857
11	0xbdabbf4d	-0.08386097
12	0x3b984349	0.004646693
13	0xbd65d445	-0.05611064
14	0x3d3f9f16	0.046782576
15	0x3c007533	0.0078404425
16	0xbc347ce4	-0.011016104
17	0xbdc913f7	-0.09818261
18	0xb903c600	-0.00012566894
19	0xbd5560ee	-0.052094392
20	0x3c56ffd7	0.01312252
21	0x3c8ffe7d	0.017577404
22	0xbdf979d2	-0.121814385
23	0xbcd1e073	-0.025619721
24	0xbd91775b	-0.071028434
25	0xbdd4d7dc	-0.103927344
26	0xbdccbd20	-0.0999701
27	0x3cb4ed7a	0.022085894
28	0x3ccaece1	0.024771156
29	0xbd5d96b6	-0.054098807
30	0x3d762d26	0.06010165
31	0x3c7cfffa	0.015441889
32	0xbda4b4b4	-0.08042279
33	0xbd0b40e6	-0.03399744
34	0x3d2377e0	0.039909244
35	0xbd886ae6	-0.06661014
36	0xbdb7fb37	-0.08983462
37	0x3d705c8e	0.058682017
38	0xba5d21b4	-0.0008435503
39	0xbdc2a7f1	-0.095046885
40	0x3d02cad9	0.03193173
41	0xbdaf9aff	-0.08574485
42	0x3b36de48	0.0027903486
43	0xbdf6633a	-0.12030645
44	0xbd7858d5	-0.06063159
45	0xbcc9eb42	-0.024648312
46	0x3c76a1bd	0.01505321
47	0xbcbbbaa4	-0.022916146
48	0xbac8dd13	-0.0015324674
49	0xbdef2e70	-0.11678779
50	0x3c3dc02e	0.011581464
51	0xbe0312bf	-0.1280012
52	0xbd0d4c03	-0.03449632
53	0x3c3967de	0.011316268
54	0x3d0eaeec	0.034834787
55	0xbdb62a2d	-0.08894763
56	0xbd9b2bb5	-0.07576696
57	0xbda79e6a	-0.08184512
58	0xbe02449f	-0.1272149
59	0x3d751b62	0.059840567
60	0xbc390357	-0.0112923
61	0xbd36e830	-0.044655025
62	0xbd825386	-0.06363587
63	0x3d3126ce	0.043249898
64	0xbcd17999	-0.025570678
65	0xbc09c321	-0.008408339
66	0x3ceb37ae	0.028713074
67	0x3d15a982	0.03653861
68	0xbd15cf4e	-0.036574654
69	0xbda5172c	-0.0806106
70	0x3d9e986d	0.07743917
71	0xbd71faa2	-0.059076913
72	0xbdd1ce80	-0.10244465
73	0x3d157208	0.0364857
74	0xbc6332d8	-0.013867103
75	0xbd2a2ce9	-0.041546736
76	0xbd0ebcd8	-0.034848064
77	0xbcdbf782	-0.02685142
78	0x3c87618f	0.016526012
79	0xbdd9e60c	-0.10639581
80	0x3c5e9867	0.01358614
81	0xbe0786db	-0.13235037
82	0xbc84814f	-0.01617494
83	0x3d080923	0.03321184
84	0xbccf1a1c	-0.025281005
85	0x3ca41519	0.020029591
86	0xbc919a4f	-0.017773775
87	0x3d0825e1	0.03323925
88	0xbd869a3e	-0.06572388
89	0xbd4ee710	-0.050513327
90	0xbdee62a8	-0.11639911
91	0xbda4a7c3	-0.080398105
92	0xbd848bb1	-0.064719565
93	0xbd98b711	-0.07456792
94	0xbb4e8bd3	-0.0031516447
95	0xbde091e3	-0.10965326
96	0x3d4869c2	0.048928984
97	0xbc5024bd	-0.012704072
98	0xbc09129b	-0.008366252
99	0x3d127efa	0.035765626
100	0x3cf24db9	0.029578077
101	0xbd8a2b35	-0.06746522
102	0xbcad9664	-0.021189876
103	0xbc8667ca	-0.016406912
104	0xbc348b75	-0.011019577
105	0xbdd2d896	-0.10295217
106	0x3d16406e	0.03668254
107	0xbd6660c2	-0.05624462
108	0xbd992d85	-0.07479385
109	0x3d3fbcca	0.046810903
110	0xbd955e83	-0.07293417
111	0xbdddb9ef	-0.1082648
112	0xbd01223f	-0.0315268
113	0xbd2f5d97	-0.042813864
114	0x380376be	3.134342e-05
115	0xbdae6ea6	-0.08517198
116	0x3d7527ca	0.0598524
117	0xbb074c5f	-0.0020644886
118	0xbd0b1015	-0.033950884
119	0x3d8237fd	0.06358335
120	0xbd9a5eb3	-0.07537594
121	0xbd779f0c	-0.060454413
122	0x3a036a25	0.000501307
123	0xbd2bf800	-0.041984558
124	0x3c966656	0.018359344
125	0x3d110a02	0.035409935
126	0x3d2f4854	0.042793587
127	0x3d20dfc2	0.039275892
128	0x3d942676	0.07233898
129	0xbde5f748	-0.11228806
130	0x3dba3e9c	0.09093973
131	0xbe28378f	-0.16427444
132	0xbe246f3d	-0.16058059
133	0xbdd3f476	-0.103493616
134	0xbe4bec9a	-0.19914475
135	0xbccf98ea	-0.02534147
136	0xbcceee75	-0.02526019
137	0x3ca5fb3c	0.0202614
138	0xbe5ac954	-0.21365863
139	0xbd917e40	-0.071041584
140	0xbc90715d	-0.01763218
141	0x3cc990ad	0.02460512
142	0x3c3722d3	0.011177736
143	0xbcf12671	-0.029437276
144	0xbddfd61d	-0.10929511
145	0xbe130957	-0.14359032
146	0xbd79fb4c	-0.06103067
147	0xbe0ee511	-0.1395457
148	0xbe08c6c4	-0.13357073
149	0xbdb46eb4	-0.088101774
150	0xbe8fb653	-0.2806879
151	0xbefd8c0b	-0.49520907
152	0xbd1b3827	-0.037895348
153	0xbdbcc090	-0.09216416
154	0xbdb225a7	-0.08698588
155	0xbe41cf17	-0.18926655
156	0xbe095d44	-0.13414484
157	0x3d52bf1d	0.05145179
158	0xbe520c80	-0.20512581
159	0xbe08530e	-0.13312933
160	0xbdcab905	-0.09898571
161	0xbe06fd24	-0.13182503
162	0xbecc95d8	-0.39958072
163	0xbe9e8bcb	-0.3096603
164	0xbc511d23	-0.012763294
165	0x3d300c21	0.042980317
166	0xbe14b714	-0.14522964
167	0xbe309888	-0.17245686
168	0xbe8bd4b2	-0.2731071
169	0xbd8121b2	-0.06305255
170	0xbebfe485	-0.37479034
171	0x3dc6cb24	0.09706715
172	0x3cdc2b88	0.026876226
173	0xbe26ae23	-0.16277365
174	0xbed83cba	-0.4223383
175	0xbdfdfbaf	-0.124015205
176	0xbe2d9849	-0.16952623
177	0xbe055e8e	-0.13024351
178	0x3da3f328	0.08005363
179	0xbd4ced41	-0.05003095
180	0xbea103cb	-0.31448206
181	0xbf9ea034	-1.239264
182	0xbea3d2c8	-0.3199675
183	0xbe8ea1fc	-0.2785796
184	0xbd71fb76	-0.059077702
185	0xbf846b50	-1.0345249
186	0xbe838c79	-0.2569311
187	0xbd57cfad	-0.05268829
188	0x3d196ca1	0.037457112
189	0xbe19481e	-0.14968917
190	0x3e038294	0.1284278
191	0xbdae5ae9	-0.085134335
192	0xbe1604a7	-0.14650212
193	0xbe21ecf2	-0.15813044
194	0xbe2a5f0a	-0.16637817
195	0x3e04b386	0.12959108
196	0xbe14fb7d	-0.1454906
197	0x3dcec590	0.10096276
198	0x3dc62984	0.09675887
199	0xbe511917	-0.20419727
200	0xbd360c4a	-0.044445314
201	0xbdf35578	-0.11881536
202	0xbe9f0687	-0.31059667
203	0xbd9d0bf2	-0.07668294
204	0xbe6aba87	-0.22922717
205	0xbd7e38b4	-0.062065795
206	0xbc95a37d	-0.018266434
207	0xbbf2077f	-0.0073861475
208	0x3d9a8782	0.07545377
209	0xbd295134	-0.041337207
210	0xbdae613b	-0.08514639
211	0xbdc07b15	-0.09398476
212	0x3e657b82	0.22410396
213	0xbe1238fe	-0.14279553
214	0x3d565322	0.052325375
215	0x3c38aae0	0.0112712085
216	0xbc3255ec	-0.010884743
217	0x3d209800	0.03920746
218	0xbc174004	-0.009231571
219	0xbdc87a3b	-0.097889386
220	0xbe47bf88	-0.19506657
221	0xbea88c43	-0.3291951
222	0xbe27a0d1	-0.1636994
223	0x3e4ced7a	0.20012465
224	0xbdee5566	-0.11637382
225	0x3d26d283	0.040728103
226	0xbe28e313	-0.16492872
227	0x3d5610ae	0.052262
228	0x3e03305e	0.1281142
229	0xbd30d7ef	-0.04317468
230	0xbd3ad20b	-0.04561047
231	0xbd8f7bef	-0.0700606
232	0x3d089661	0.033346538
233	0xbec063c2	-0.3757611
234	0xbe3305c5	-0.1748267
235	0xbd041c23	-0.032253396
236	0x3dcb8f21	0.09939409
237	0xbe76287b	-0.2403888
238	0xbeaf0e2e	-0.34190506
239	0xbe0db096	-0.13836893
240	0xbecf5409	-0.404938
241	0x3db1e187	0.08685594
242	0xbdafd401	-0.085853584
243	0xbda88e66	-0.08230285
244	0xbe2f241f	-0.17103623
245	0xbe75e8f7	-0.2401465
246	0xbd1b5b0b	-0.037928622
247	0xbe02a8ed	-0.12759753
248	0xbe1c885f	-0.15286396
249	0xbe49440a	-0.19654861
250	0xbddb7f19	-0.10717601
251	0xbe32fe8a	-0.17479911
252	0xbe23bc63	-0.15989833
253	0xbcf49972	-0.029858325
254	0xbd330ffb	-0.043716412
255	0x3d78ca1e	0.06073963

fc2.bias f4 [128]
0	0xbd53ea60	-0.05173719
1	0x3dc19735	0.094526686
2	0xbe8851cc	-0.26624906
3	0x3f0621a3	0.52395076
4	0x3efe5708	0.49675775
5	0xba981afa	-0.0011604719
6	0x3ef5d7f4	0.48016322
7	0x3e2e7eec	0.17040604
8	0xbecb2fc1	-0.3968487
9	0x3e70c7f4	0.23513776
10	0x3f0a9cf4	0.5414574
11	0x3eecc73a	0.46245748
12	0xbde6eb55	-0.11275355
13	0x3c2a9975	0.010412564
14	0xbdb88791	-0.09010232
15	0x3b8d7703	0.004317166
16	0x3f13a1eb	0.5766894
17	0x3e9e953f	0.3097324
18	0xbea7e111	-0.327889
19	0x3d3a7b47	0.045527723
20	0x3e8dfc69	0.27731636
21	0xbc821f08	-0.015883937
22	0xbd19dbd0	-0.037563145
23	0x3ee735e7	0.45158312
24	0x3f2d7ad0	0.6776552
25	0x3fa7e7da	1.311763
26	0x3ded0000	0.115722656
27	0xbdbc37bf	-0.0919032
28	0x3f289759	0.6585594
29	0x3ee4030a	0.4453357
30	0x3e31f972	0.17380312
31	0x3f0c34c8	0.5476804
32	0xbe99a6e2	-0.30010134
33	0x3cd9c2e3	0.026582187
34	0xbdf01db7	-0.11724418
35	0xbe38c7bd	-0.18044944
36	0x3e8075fe	0.2509002
37	0x3e713199	0.23554076
38	0xbd8b4592	-0.06800379
39	0x3e9de501	0.3083878
40	0x3e36e879	0.17862119
41	0x3f08539b	0.5325257
42	0xbe22a1a3	-0.15881972
43	0xbd37d668	-0.044882208
44	0x3ee84df8	0.45371985
45	0x3d8cbc41	0.06871844
46	0xbd06ccd9	-0.0329102
47	0x3f2f326e	0.68436325
48	0x3eeacc7a	0.45859128
49	0xbf755e20	-0.9584675
50	0xbcdd6566	-0.02702589
51	0xbdb32f71	-0.08749283
52	0xbf16d497	-0.58918136
53	0xbd771444	-0.06032206
54	0x3e78bccd	0.24290772
55	0x3e07ba75	0.13254721
56	0x3e0afb80	0.13572502
57	0xbefa762f	-0.48918292
58	0x3f48ee35	0.78488475
59	0x3f6fdcda	0.9369637
60	0xbdded792	-0.108809605
61	0x3d23fabd	0.040034045
62	0x3f8e35c7	1.1110162
63	0x3e8d5709	0.27605465
64	0x3e835a72	0.25654942
65	0x3f7d550b	0.9895789
66	0xbdde07e6	-0.1084135
67	0xbdfe8dcb	-0.124293886
68	0x3bf8a619	0.0075881598
69	0xbe2a3700	-0.16622543
70	0x3e1f710e	0.1557047
71	0xbea2f3bc	-0.3182658
72	0xbe01095f	-0.12601231
73	0x3f19dfe0	0.6010723
74	0xbb88b3c8	-0.004171822
75	0xbd9d05a8	-0.076670945
76	0xbd01ac50	-0.03165847
77	0xbe15d946	-0.14633664
78	0xbda75a36	-0.08171503
79	0x3db19b27	0.08672171
80	0x3e4b717c	0.1986751
81	0x3e961992	0.29316384
82	0x3e9c7b2b	0.3056272
83	0x3e96e3b8	0.2947061
84	0x3ebe6153	0.37183627
85	0xbe9a7756	-0.3016917
86	0xbdc79c5b	-0.09746619
87	0x3f48631b	0.7827622
88	0x3f19c071	0.6005927
89	0x3e85e980	0.2615471
90	0xbd41c914	-0.047310904
91	0x3e99c4d9	0.30032995
92	0xbdf94976	-0.12172215
93	0xbebe7d57	-0.37205002
94	0xbd423280	-0.04741144
95	0x3e9c9f0a	0.30590087
96	0x3f051f4e	0.5200089
97	0xbf1baee9	-0.60813767
98	0xbcd8114c	-0.026375435
99	0x3f002099	0.5004974
100	0xbf21970d	-0.6312111
101	0xba49b29e	-0.00076941575
102	0xbce73aa0	-0.028226197
103	0xbdd34565	-0.1031597
104	0x3eadcca3	0.33945188
105	0x3f13c5cc	0.5772369
106	0xbe77964c	-0.24178427
107	0xbdcf17c0	-0.10111952
108	0xbe742118	-0.2384075
109	0x3d4e8e10	0.05042845
110	0x3eb7bb5c	0.3588513
111	0x3eb127e8	0.3460076
112	0xbb93a81e	-0.004506125
113	0xbda116d6	-0.07865684
114	0x3eee8213	0.46583614
115	0xbdb4b7e2	-0.08824135
116	0xbcca2760	-0.024676979
117	0x3dc4d7a8	0.09611446
118	0x3e0323ae	0.1280658
119	0xbe95211b	-0.2912682
120	0xbdc6f9d4	-0.0971562
121	0xbe04ddca	-0.12975231
122	0xbda83aab	-0.08214315
123	0x3d289d9d	0.041165937
124	0xbda282dd	-0.079351164
125	0xbdc94469	-0.09827501
126	0x3ecdfbd2	0.40231186
127	0x3ef533d0	0.47891092

fc3.weight f4 [64, 128]
0	0x3d345fb4	0.044036582
1	0x3d7ef461	0.062244777
2	0xbf9ad9e5	-1.2097746
3	0x3f6f6206	0.93508947
4	0xbe11b0c8	-0.14227593
5	0xbd269b92	-0.040675707
6	0xbe055cfe	-0.13023755
7	0x3e2073ad	0.15669127
8	0xbef5514c	-0.47913587
9	0x3f44c47b	0.76862305
10	0x3f8c70d4	1.0971932
11	0xbf971abf	-1.1805037
12	0xba69b748	-0.00089155557
13	0x3bfa9c28	0.00764801
14	0x3d6209a4	0.055184975
15	0xbebaa452	-0.3645349
16	0x3cc688bc	0.024235122
17	0x3e4ca951	0.19986464
18	0xbec89f78	-0.39184165
19	0x3d901bf3	0.07036581
20	0x3f9a6b72	1.206404
21	0x3d25e07b	0.040497284
22	0xbd7a1bd5	-0.0610617
23	0xbc0d8e7b	-0.008639927
24	0x3e869861	0.2628813
25	0x3cd75d36	0.026289564
26	0xbe5bb86d	-0.21457072
27	0x3d1431b0	0.0361802
28	0x3de536a6	0.11192064
29	0x3d0f57d6	0.034995876
30	0xbdc3a97d	-0.09553812
31	0x3d54670a	0.05185608
32	0x3ead1273	0.33803138
33	0x3d2e281e	0.042518727
34	0xbe8b62dc	-0.2722386
35	0x3c6cdd51	0.014457063
36	0x3f09be12	0.5380565
37	0x3f92ac62	1.1458857
38	0x3d175448	0.03694561
39	0x3e116111	0.14197184
40	0x3ee2120a	0.44154388
41	0xbd6231dd	-0.055223335
42	0xc0099834	-2.1499147
43	0xbd735117	-0.059403505
44	0x3edfe716	0.43730992
45	0xbf63f2eb	-0.8904254
46	0x3d3fbee0	0.046812892
47	0xbe7d74fc	-0.24751657
48	0x3e590549	0.21193422
49	0xc031b916	-2.7769217
50	0x3ddf54e8	0.109048665
51	0x3d772ff7	0.060348477
52	0x3cb104ef	0.021608798
53	0x3f5812eb	0.84403867
54	0x3cab6955	0.02092425
55	0xbe0a3576	-0.13496956
56	0x3dcb7b31	0.09935606
57	0x3e939b98	0.28829646
58	0xbe753f17	-0.23949848
59	0x3e39c66f	0.18142103
60	0xbd10e268	-0.035372168
61	0x3efaf529	0.49015167
62	0x3e4fee01	0.20305635
63	0xbdd903c7	-0.105964236
64	0xbf3d5e9c	-0.7397249
65	0x3e98070a	0.2969287
66	0xbd9ce1df	-0.07660269
67	0xbd3df810	-0.04637915
68	0xbfce2415	-1.6104761
69	0x3c8ad203	0.016945845
70	0x3ebc2186	0.36744326
71	0xbe29fe57	-0.16600929
72	0x3d401585	0.046895523
73	0xbdcd9310	-0.100378156
74	0xbbe54ec3	-0.0069979145
75	0xbdb9e466	-0.09076767
76	0x3d6eba89	0.058283363
77	0xba9d78eb	-0.0012014186
78	0xbbc2acab	-0.005940994
79	0x3f08aa4b	0.53384846
80	0x3d405504	0.046956077
81	0x3d274877	0.040840592
82	0x3f42c548	0.7608228
83	0x3e87ead6	0.26546353
84	0xbe3fe487	-0.1873952
85	0x3f252da8	0.6452279
86	0x3d9cbb63	0.07652929
87	0xbe917239	-0.28407457
88	0xbf002d11	-0.50068766
89	0xbf926e89	-1.1439983
90	0xbd634c88	-0.055492908
91	0x3e590770	0.21194243
92	0x3f10924c	0.5647323
93	0xbfbf7172	-1.4956496
94	0xbd92fea3	-0.07177474
95	0x3f8e900a	1.1137707
96	0xbf30c3d5	-0.69048816
97	0xbe5f5f46	-0.21813688
98	0xbda32740	-0.07966471
99	0x3f9d7c23	1.2303509
100	0x3e660428	0.22462523
101	0xbc59c4b3	-0.013291526
102	0x3d836dd1	0.0641743
103	0xbd8808d4	-0.06642309
104	0x3edc1016	0.42981023
105	0xbf74eb17	-0.9567122
106	0x3cec57c8	0.028850451
107	0x3c28840e	0.010285391
108	0x3ba8ccb7	0.005151357
109	0x3eb9b0d3	0.3626772
110	0x3eca42eb	0.3950418
111	0xbf28f80d	-0.66003495
112	0x3b36eb8b	0.002791139
113	0x3ee565be	0.44804186
114	0x3d677d9f	0.056516286
115	0x3d229292	0.03969056
116	0xbcb5b6c6	-0.02218188
117	0xbeb133d6	-0.3460986
118	0xbeb5176a	-0.35369426
119	0x3e89b673	0.2689701
120	0xbd59734a	-0.053088464
121	0xbddcce6e	-0.10781561
122	0xbbb16349	-0.005413447
123	0x3cae21e9	0.021256404
124	0xbd805f85	-0.06268219
125	0x3ddc71c0	0.107638836
126	0x3d790f04	0.060805336
127	0x3e908474	0.28226054
128	0xbdc3bc23	-0.095573686
129	0xbd94c997	-0.07265013
130	0xbf206e7a	-0.62668574
131	0x3f4bd33a	0.7961918
132	0x3f2c18d6	0.67225397
133	0xbda8b0f1	-0.08236874
134	0x3e791e75	0.24328025
135	0x3e6a2b10	0.2286799
136	0xbf64b0a2	-0.8933202
137	0x3f5c635a	0.860891
138	0x3f2b7a2c	0.66983294
139	0xbf2ab5f1	-0.6668387
140	0x3d379083	0.04481555
141	0xbb222ac1	-0.0024744722
142	0xbd4b0acb	-0.04957084
143	0xbf809fb3	-1.0048736
144	0x3efcbea2	0.4936419
145	0x3e74e3ae	0.23914978
146	0x3eeb042e	0.45901626
147	0x3eaa19a1	0.33222678
148	0x3f8cc7d3	1.0998482
149	0x3e3937f7	0.18087755
150	0xbd6bc13c	-0.05755733
151	0xbf1c2cec	-0.61006045
152	0x3e2b9809	0.16757216
153	0xbd5d6de6	-0.054059885
154	0xbe331c6e	-0.17491314
155	0xbc855425	-0.016275475
156	0x3ea06143	0.31324205
157	0x3d7b208b	0.061310332
158	0xbf02c700	-0.510849
159	0x3e19a88f	0.15005706
160	0x3ed7ce60	0.4214964
161	0xbf8586f8	-1.0431814
162	0xbf192365	-0.5981963
163	0xba9d3257	-0.0011993152
164	0x3f2d36a9	0.6766153
165	0x3f39cee7	0.7258133
166	0xbd6a8366	-0.057254218
167	0xbf2982ac	-0.66215014
168	0x3ef62f1f	0.48082826
169	0xbdf83bd2	-0.12120785
170	0xc0775cca	-3.8650384
171	0x3d39c7b2	0.04535646
172	0x3f7bcb38	0.9835696
173	0xbee00430	-0.43753195
174	0xbc76aefb	-0.015056367
175	0xbc28200f	-0.01026155
176	0x3c7689b0	0.015047476
177	0xbf4b081a	-0.79309237
178	0xba8b069a	-0.0010606826
179	0xbb77c1a7	-0.0037804635
180	0x3e725f12	0.23669079
181	0x3fb664f0	1.4249554
182	0x3f636c54	0.8883717
183	0x3f2b1d92	0.66841996
184	0x3db4b7e0	0.08824134
185	0x3d452a72	0.048136182
186	0x3db34f73	0.08755388
187	0xbe55bdb4	-0.20873147
188	0xbccfb851	-0.025356444
189	0x3fadb8e3	1.3572048
190	0x3d86a009	0.06573493
191	0x3e5e9408	0.21736157
192	0xbf16f95d	-0.5897425
193	0xbe416e05	-0.18889625
194	0x3d210b1b	0.03931723
195	0x3da1ed2a	0.079065636
196	0xbfb54254	-1.4160867
197	0xbd8aa471	-0.06769646
198	0x3ea99c75	0.3312718
199	0x3d2b2419	0.041782472
200	0xbcf43505	-0.029810438
201	0x3e270078	0.16308773
202	0x3d7321f7	0.059358563
203	0xbb34deea	-0.0027598687
204	0x3d3175d5	0.043325264
205	0x3d90ea41	0.070759304
206	0x3d52d7e3	0.051475417
207	0x3f26d5a2	0.6516973
208	0xbeb0663a	-0.34452993
209	0xbeb401a6	-0.35157508
210	0x3f1dd5aa	0.6165415
211	0xbec07ed3	-0.3759676
212	0x3d2d64d3	0.04233248
213	0xbe485365	-0.19563062
214	0x3c97fde3	0.01855368
215	0xbe5e1f5d	-0.21691652
216	0x3e9fb5e9	0.31193474
217	0x3d479f8c	0.04873614
218	0xbd9fd6c8	-0.07804638
219	0x3dd193bc	0.10233256
220	0xbea13842	-0.31488234
221	0xbff21aa9	-1.8914386
222	0xbd389ec2	-0.04507328
223	0xbbefb907	-0.007315758
224	0xbface998	-1.3508787
225	0xbf00a16f	-0.5024633
226	0xbae1803e	-0.0017204357
227	0x3fe084b7	1.7540501
228	0xbdb0be99	-0.086301036
229	0xbd40f9c4	-0.047113195
230	0xbf32408e	-0.6962975
231	0xbd6acc44	-0.05732371
232	0xbef41128	-0.4766934
233	0xbe9fc168	-0.31202245
234	0xbf7afb61	-0.98039824
235	0xbd8e78e6	-0.06956653
236	0xbe8da56c	-0.2766527
237	0xbebad97d	-0.36494055
238	0xbd37de3c	-0.044889674
239	0x3ea831da	0.32850534
240	0xbe00c12f	-0.12573694
241	0x3d5d6da6	0.054059647
242	0x3e94ad9c	0.29038703
243	0x3cf87509	0.030329244
244	0x3cbaea3a	0.022816766
245	0x3e8c5c0b	0.27413973
246	0xbf184975	-0.59487087
247	0xbe2b834b	-0.16749303
248	0xbd9fa1d0	-0.07794535
249	0x3d3ea699	0.0465456
250	0xbd23ea9b	-0.04001866
251	0x3d624f80	0.0552516
252	0xbdb62b7d	-0.088950135
253	0x3db8a171	0.090151675
254	0xbd59ee6a	-0.053205885
255	0xbded64fb	-0.11591526

fc3.bias f4 [64]
0	0x3fbff823	1.49976
1	0x3f9feb94	1.2493768
2	0xbe3dfa74	-0.18552572
3	0x3fce5fd8	1.6122999
4	0x3fa775fc	1.3082881
5	0xbe3a1adc	-0.18174309
6	0xbeed0e4e	-0.46299976
7	0xbe7a4661	-0.2444091
8	0xbdcf28b3	-0.10115185
9	0x3cebf873	0.028804993
10	0xbdb93684	-0.09043601
11	0xbe74c942	-0.23904899
12	0xbe1ae91b	-0.15127985
13	0x3e8caea8	0.27477002
14	0x3e4c1c59	0.19932689
15	0xbdb35788	-0.0875693
16	0xbd9fb960	-0.07799029
17	0x3f81b6d8	1.0133924
18	0xbe1cfeef	-0.15331624
19	0xbe2645de	-0.1623759
20	0x3d9e9134	0.07742539
21	0xbda573d4	-0.08078733
22	0xbf13f82b	-0.5780055
23	0x3f5697fc	0.8382566
24	0xbe264df2	-0.16240671
25	0xbe0949a8	-0.13407004
26	0x3fa4c197	1.2871579
27	0x3fba7ddd	1.456966
28	0x3fc10986	1.5081031
29	0x3f1025eb	0.5630786
30	0x3e08a998	0.13345945
31	0xbdfbb5cc	-0.122905344
32	0x3f8760dd	1.0576435
33	0xbdbe6ace	-0.09297715
34	0x3dfc4076	0.123169824
35	0x3f5c72da	0.8611275
36	0xbd764cbc	-0.060131773
37	0xbe198aab	-0.14994304
38	0x3fb5e0f5	1.4209276
39	0x3f4ecc70	0.80780697
40	0x3fa44bbb	1.2835611
41	0x3e83ee7c	0.25767887
42	0xbe8bd885	-0.2731363
43	0x3fc21dde	1.5165365
44	0xbd09352d	-0.033497978
45	0x3f8803e9	1.0626193
46	0x3fc8a4f0	1.5675335
47	0xbe120b2f	-0.14262079
48	0xbe0852ff	-0.1331291
49	0xbe008bae	-0.12553284
50	0x3c92d357	0.01792304
51	0xbe19974c	-0.14999121
52	0x3f802951	1.0012609
53	0xbd9f3e6f	-0.0777558
54	0xbed4065d	-0.41411105
55	0x3f4c2eb7	0.7975878
56	0xbe253649	-0.1613399
57	0x3f39b361	0.72539335
58	0xbe1b28d4	-0.15152293
59	0xbd567f3c	-0.052367434
60	0x3fb93eb0	1.4472256
61	0x3fc067c7	1.503167
62	0x3fd305ce	1.6486146
63	0x3ec47ec1	0.38377956

fc4.weight f4 [3, 64]
0	0x3e900ae6	0.28133315
1	0x3ef57db5	0.4794747
2	0xbdcd9e33	-0.1003994
3	0x3ed4af20	0.4153986
4	0xbec4fd79	-0.38474634
5	0xbdb8fb29	-0.0903228
6	0xbfe16fa8	-1.76122
7	0xbfb9c054	-1.4511819
8	0xbd975968	-0.073901
9	0x3f9d337c	1.2281337
10	0xbd5413cd	-0.051776696
11	0x3d72e644	0.05930163
12	0xbccbbb02	-0.024869446
13	0xbfa3e04f	-1.2802829
14	0xbe98ee31	-0.29869226
15	0xbf6e1814	-0.9300549
16	0x3cfc3b76	0.030790072
17	0xbdf75616	-0.120769665
18	0x3d2096d2	0.039206333
19	0x3c476a29	0.012171307
20	0x3f3bbbd8	0.733335
21	0x3bc70c7a	0.0060744854
22	0x3e44f13f	0.19232653
23	0xbf1833a2	-0.59453785
24	0xbe4538a4	-0.19259888
25	0xbdc9bc79	-0.098504014
26	0x3f56e4cb	0.8394286
27	0x3e85c015	0.2612311
28	0x3e8cb594	0.27482283
29	0xbf77fb8b	-0.968682
30	0xbf00c4bc	-0.5030019
31	0x3cba76a6	0.022761654
32	0x3f46ad8f	0.7760858
33	0xbcd79d90	-0.026320249
34	0x3fb443ff	1.4083251
35	0xbf8c1b0b	-1.0945753
36	0xbd93d2bd	-0.072179295
37	0xbd94c296	-0.07263677
38	0x3f9e1135	1.2349001
39	0xbf0dccc6	-0.55390584
40	0x3e85e14e	0.26148456
41	0xbfd68d3c	-1.6761851
42	0x3bcb159c	0.0061976444
43	0x3ec985c6	0.39359874
44	0xbfd923ab	-1.696401
45	0xbf5c4c37	-0.86053795
46	0x3ee39a77	0.44453785
47	0xbc54844b	-0.012970994
48	0xbcb8749b	-0.02251654
49	0xc001896e	-2.024013
50	0xbd10b3dc	-0.035327777
51	0xbf172f32	-0.5905639
52	0x3e5da081	0.21643259
53	0x3c72044f	0.014771535
54	0x3f9b9ab1	1.2156583
55	0x3f343c42	0.70404446
56	0xbd02dec0	-0.031950712
57	0x3f1c4c54	0.6105397
58	0xbcd05833	-0.025432682
59	0xbecb07dc	-0.39654434
60	0x3e936210	0.28785753
61	0xbd6b833c	-0.0574982
62	0x3f30d731	0.69078356
63	0xbf83c12e	-1.0293329
64	0x3e9f0638	0.31059432
65	0x3e816de1	0.25279143
66	0x3cc6041d	0.024171883
67	0x3ec5a3c5	0.3860151
68	0x3f0ad584	0.5423205
69	0xbd20f11d	-0.039292444
70	0xbeb6fad0	-0.3573823
71	0x3eaa3a5a	0.33247644
72	0x3c4f6d92	0.012660401
73	0x3c49291e	0.0122778695
74	0xbd5434d8	-0.05180821
75	0xbc6ba431	-0.014382408
76	0xbc0b03ef	-0.008484825
77	0xbf584c15	-0.8449109
78	0xbf305bb3	-0.6888992
79	0xbf80e4ef	-1.0069865
80	0xbdf8d716	-0.121503994
81	0x3f197e4d	0.59958345
82	0x3c42751b	0.01186874
83	0xbbd2d5fb	-0.0064342
84	0x3f530f9b	0.8244569
85	0x3cd5bf27	0.026092125
86	0x3dfcce0d	0.123439886
87	0xbf7a69de	-0.9781779
88	0x3e829c25	0.25509754
89	0x3d013bfb	0.031551342
90	0x3f1282ea	0.5723101
91	0x3f217bab	0.6307933
92	0x3f132a86	0.5748676
93	0xbc66d4e2	-0.014088841
94	0xc025708f	-2.584995
95	0x3bf667e9	0.0075197113
96	0x3efa341d	0.48867884
97	0x3d30e593	0.04318769
98	0x3f362ac0	0.7115898
99	0xbfee183d	-1.8601147
100	0x3d7cbbd1	0.061702553
101	0x3ce49622	0.02790362
102	0x3e6ca991	0.2311156
103	0xbfb7428b	-1.4317182
104	0x3f18278f	0.5943536
105	0xc015df64	-2.3417597
106	0xbc99da3c	-0.01878082
107	0x3ed60ea2	0.4180804
108	0x3f2d6900	0.6773834
109	0xbf81ae7e	-1.0131376
110	0x3eab822f	0.3349776
111	0xbd9ae054	-0.075623184
112	0xbd01295f	-0.031533595
113	0xc016803c	-2.3515768
114	0xc0262d30	-2.596508
115	0xbe3bfbcf	-0.18357776
116	0x3f3857d7	0.7200903
117	0x3d70b819	0.05876932
118	0x400f089e	2.234901
119	0x3ecac1b7	0.39600918
120	0x3d98106e	0.07425009
121	0x3f0ed0bb	0.5578725
122	0xbd03229b	-0.032015424
123	0xbd76bbdc	-0.06023775
124	0xbf46abe9	-0.77606064
125	0x3edb8405	0.4287416
126	0x3f12a4e9	0.5728288
127	0xbe25bcb0	-0.1618526
128	0x3ec5422a	0.38527042
129	0x3eeed184	0.46644223
130	0x3d80e199	0.06293029
131	0x3e4558a1	0.1927209
132	0x3f2050d3	0.6262333
133	0xbb99a051	-0.0046883007
134	0x3da9bfe9	0.08288557
135	0xbf68bcd6	-0.9091314
136	0x3d8089a5	0.062762536
137	0x3f1ff746	0.62486684
138	0x3c3724dd	0.0111782225
139	0xbb967024	-0.004591005
140	0xbd93f75a	-0.07224913
141	0xbfc3db8d	-1.5301377
142	0xc0294124	-2.6446009
143	0xbf87aa3f	-1.059883
144	0x3a867aba	0.0010259964
145	0x3ecee839	0.40411547
146	0x3c33e0c6	0.010978883
147	0x3bc80d60	0.00610511
148	0x3f0aa4fe	0.5415801
149	0xbbd31157	-0.006441276
150	0xbe01d38a	-0.12678352
151	0x3e18fd36	0.14940342
152	0x3f381cb9	0.7191883
153	0x3c4f4b61	0.012652249
154	0x3e639b49	0.22227205
155	0x3f069ca0	0.5258274
156	0x3f9b862d	1.2150322
157	0x3f456d95	0.77120334
158	0xbfe6814c	-1.8008208
159	0xbd2d84d2	-0.042362995
160	0x3f41d320	0.75712776
161	0xbca52819	-0.020160722
162	0xbf8e9210	-1.1138325
163	0xbffb3544	-1.962563
164	0x3d22a3c4	0.03970696
165	0xbc1254e2	-0.00893137
166	0x3ef7fa84	0.48433316
167	0xbf3925c0	-0.72323227
168	0x3f085bec	0.5326526
169	0xc00bff18	-2.1874447
170	0x3df5c0fd	0.119997
171	0x3db410fe	0.087923035
172	0xbfd06caa	-1.6283162
173	0x3fc44065	1.5332152
174	0x3e03cc2a	0.12870851
175	0xbddc561c	-0.107586116
176	0x3ddcd839	0.10783429
177	0xbe91e06c	-0.28491533
178	0x3ee272b2	0.4422813
179	0xbfb99d40	-1.4501114
180	0x3ef28bc5	0.4737226
181	0xba7391a2	-0.00092914153
182	0x40160230	2.3438835
183	0x3eb343db	0.35012707
184	0xbd5b68dc	-0.0535668
185	0x3ee1512c	0.44007242
186	0x3dad572b	0.084638916
187	0xbe9d4ead	-0.30724087
188	0x3e0e8ef6	0.13921723
189	0x3f3833a5	0.71953803
190	0x3f65883f	0.8966102
191	0xbf8be400	-1.0928955

fc4.bias f4 [3]
0	0x3f1a19b9	0.601955
1	0x3fbfc8a8	1.498311
2	0x3f602e2a	0.8757044

exp_avg f4 [128, 5]
0	0xbcae3c32	-0.021268938
1	0x3bbe1688	0.005801026
2	0xbcaaa08c	-0.020828508
3	0x3b7c17e5	0.003846639
4	0xbb7c17e5	-0.003846639
5	0xbd2eca2a	-0.042673267
6	0xbd1139cc	-0.03545551
7	0xbd776d27	-0.06040683
8	0x3d3f09e8	0.046640307
9	0xbd3f09e8	-0.046640307
10	0xbb81d453	-0.0039620786
11	0xbbb6aa0d	-0.005574471
12	0x3ab4249c	0.0013743821
13	0xbac2f5f4	-0.0014874325
14	0x3ac2f5f4	0.0014874325
15	0x80000004	-6e-45
16	0x00000004	6e-45
17	0x00000004	6e-45
18	0x00000004	6e-45
19	0x80000004	-6e-45
20	0xb9665c0c	-0.000219688
21	0xbaca658d	-0.0015441641
22	0xb34e6c77	-4.806176e-08
23	0xb98c1b55	-0.00026723245
24	0x398c1b55	0.00026723245
25	0xbced4d60	-0.02896756
26	0xbc70b739	-0.014692121
27	0xbcdea655	-0.027178923
28	0x3ca77ad4	0.020444311
29	0xbca77ad4	-0.020444311
30	0xbd117955	-0.035516102
31	0xbc8cdef8	-0.017196164
32	0xbd01ace6	-0.03165903
33	0x3c446df7	0.011989108
34	0xbc446df7	-0.011989108
35	0x00000004	6e-45
36	0x00000004	6e-45
37	0x00000004	6e-45
38	0x80000004	-6e-45
39	0x00000004	6e-45
40	0x3c131271	0.008976565
41	0xb9835aeb	-0.00025054006
42	0x3c374740	0.011186421
43	0xbccc8463	-0.02496547
44	0x3ccc8463	0.02496547
45	0x00000004	6e-45
46	0x00000004	6e-45
47	0x80000004	-6e-45
48	0x00000004	6e-45
49	0x80000004	-6e-45
50	0xbbb8bd00	-0.005637765
51	0x3879ce4d	5.955836e-05
52	0xbb48c9e1	-0.0030637907
53	0xba4d8496	-0.0007839886
54	0x3a4d8496	0.0007839886
55	0x00000004	6e-45
56	0x00000004	6e-45
57	0x00000004	6e-45
58	0x80000004	-6e-45
59	0x00000004	6e-45
60	0x3d278464	0.040897742
61	0x3d2582da	0.040407993
62	0x3d376428	0.04477325
63	0xb9aa729f	-0.00032510326
64	0x39aa729f	0.00032510326
65	0xb787a9ee	-1.6172384e-05
66	0x3ab501b1	0.0013809708
67	0x3a35bb3c	0.0006932502
68	0xbba26681	-0.004956067
69	0x3ba26681	0.004956067
70	0x3d403eea	0.046935
71	0x3bd01fa6	0.006351429
72	0x3d78c835	0.060737807
73	0xbd764270	-0.060121953
74	0x3d764270	0.060121953
75	0x3d4ad567	0.049519923
76	0x3d3444d4	0.044010952
77	0x3cafba85	0.021451244
78	0xbca24898	-0.019810006
79	0x3ca24898	0.019810006
80	0x80000004	-6e-45
81	0x80000004	-6e-45
82	0x80000004	-6e-45
83	0x80000004	-6e-45
84	0x00000004	6e-45
85	0xbcb7040e	-0.0223408
86	0xbc0178c7	-0.007902331
87	0xbc895586	-0.016764414
88	0x3cef718d	0.02922895
89	0xbcef718d	-0.02922895
90	0x80000004	-6e-45
91	0x00000004	6e-45
92	0x80000004	-6e-45
93	0x80000004	-6e-45
94	0x00000004	6e-45
95	0x3ce47a11	0.027890237
96	0x3ce1a339	0.027543651
97	0x3d13a1e3	0.03604306
98	0x3b9c1536	0.0047632707
99	0xbb9c1536	-0.0047632707
100	0x3b9e4756	0.0048302813
101	0x3bc74a16	0.00608183
102	0xbb04bb7e	-0.0020253356
103	0xbb824071	-0.003974967
104	0x3b824071	0.003974967
105	0xbb45d152	-0.003018458
106	0xbb3cb60f	-0.0028795039
107	0xbb0950d4	-0.0020952718
108	0xbc507f42	-0.012725653
109	0x3c507f42	0.012725653
110	0x3e2de22f	0.16980813
111	0x3df984dd	0.12183545
112	0x3e2482a4	0.1606546
113	0xbda05090	-0.07827866
114	0x3da05090	0.07827866
115	0x3d0f3350	0.034961045
116	0x3d802e07	0.06258779
117	0x3d493ed6	0.04913219
118	0xbd400f85	-0.0468898
119	0x3d400f85	0.0468898
120	0x3c192fc1	0.009349764
121	0x3b99c6f1	0.004692905
122	0x3c1488f1	0.0090658525
123	0xbb57574f	-0.0032858436
124	0x3b57574f	0.0032858436
125	0xbda8a124	-0.0823386
126	0xbd9c521c	-0.076328486
127	0xbd9ed912	-0.077562466
128	0xbd1f4ea5	-0.03889336
129	0x3d1f4ea5	0.03889336
130	0xba74e2af	-0.000934164
131	0xba60c5b5	-0.00085743825
132	0xbbc099ab	-0.0058776936
133	0x3c24f6f0	0.01006864
134	0xbc24f6f0	-0.01006864
135	0xbd2e5267	-0.042559054
136	0xbcf3c923	-0.029758995
137	0xbd1fd4e6	-0.039021395
138	0x3c82c98f	0.015965251
139	0xbc82c98f	-0.015965251
140	0xbbe3dd4d	-0.0069538713
141	0x3ad12863	0.0015957471
142	0xbc9b15aa	-0.018931229
143	0xbc2fe59b	-0.010735895
144	0x3c2fe59b	0.010735895
145	0xbb403d20	-0.0029333308
146	0x3d090d91	0.033460204
147	0xbd2b20ac	-0.041779205
148	0x3cedff59	0.029052423
149	0xbcedff59	-0.029052423
150	0x00000004	6e-45
151	0x00000004	6e-45
152	0x00000004	6e-45
153	0x80000004	-6e-45
154	0x00000004	6e-45
155	0xbdc45907	-0.09587293
156	0xbb70e0a7	-0.0036754997
157	0xbdbb9201	-0.091587074
158	0xbcb82383	-0.02247787
159	0x3cb82383	0.02247787
160	0x3d8407f1	0.06446827
161	0x3cff0c95	0.03113393
162	0x3dad5a38	0.084644735
163	0x3c53ed0b	0.012934933
164	0xbc53ed0b	-0.012934933
165	0xbd254e7b	-0.040358048
166	0xbbded725	-0.0068005496
167	0xbd337479	-0.04381225
168	0x3c022795	0.007944007
169	0xbc022795	-0.007944007
170	0xba5d2ad1	-0.0008436861
171	0x3ab33865	0.0013673423
172	0x3b10a392	0.0022070152
173	0xba92988f	-0.0011184382
174	0x3a92988f	0.0011184382
175	0xbcf0511c	-0.029335551
176	0xbc089762	-0.008336874
177	0xbd386df6	-0.045026742
178	0xbcabad29	-0.020956593
179	0x3cabad29	0.020956593
180	0xbcc84826	-0.024448466
181	0x3cae4fb7	0.021278245
182	0xbcaa5921	-0.020794453
183	0xbc234e9b	-0.0099674715
184	0x3c234e9b	0.0099674715
185	0x00000004	6e-45
186	0x00000004	6e-45
187	0x00000004	6e-45
188	0x00000004	6e-45
189	0x80000004	-6e-45
190	0xbb922fb4	-0.004461253
191	0xbaf0ca81	-0.0018370898
192	0xbae90a97	-0.0017779645
193	0x3bab2e02	0.0052239904
194	0xbbab2e02	-0.0052239904
195	0x3b85f441	0.004087955
196	0x3c8ef113	0.017448938
197	0xbc61705e	-0.013759701
198	0x39c25cac	0.0003707161
199	0xb9c25cac	-0.0003707161
200	0xbab24e30	-0.0013603624
201	0x3ad8fd0d	0.0016554907
202	0xba4c6b3d	-0.0007797962
203	0xbbdbb81a	-0.006705296
204	0x3bdbb81a	0.006705296
205	0x3e0e3b13	0.13889723
206	0x3e04ebae	0.1298053
207	0x3df77f17	0.12084787
208	0xbd104bca	-0.035228528
209	0x3d104bca	0.035228528
210	0x00000004	6e-45
211	0x00000004	6e-45
212	0x00000004	6e-45
213	0x80000004	-6e-45
214	0x00000004	6e-45
215	0x3c94589c	0.018108658
216	0x3aa4c217	0.001257005
217	0x3ca4569c	0.02006083
218	0xb99bd847	-0.00029725043
219	0x399bd847	0.00029725043
220	0x00000000	0.0
221	0x00000000	0.0
222	0x00000000	0.0
223	0x00000000	0.0
224	0x00000000	0.0
225	0xbc1002bf	-0.008789717
226	0xbc65f22d	-0.01403479
227	0xbc4b29dd	-0.012400118
228	0xbb7e2ce7	-0.0038784088
229	0x3b7e2ce7	0.0038784088
230	0xbcb437b2	-0.021999214
231	0xbcd74f50	-0.026282936
232	0xbc1045fc	-0.008805748
233	0x3c8db522	0.017298285
234	0xbc8db522	-0.017298285
235	0x3dbc932e	0.0920776
236	0x3dcfd648	0.10148293
237	0x3db8ab31	0.09017027
238	0xbd665f31	-0.056243125
239	0x3d665f31	0.056243125
240	0xbd3158c4	-0.043297544
241	0xbc5dc007	-0.013534552
242	0xbd257d3b	-0.040402632
243	0x3c88ebef	0.016714064
244	0xbc88ebef	-0.016714064
245	0x00000004	6e-45
246	0x00000004	6e-45
247	0x00000004	6e-45
248	0x00000004	6e-45
249	0x80000004	-6e-45
250	0x80000004	-6e-45
251	0x80000004	-6e-45
252	0x00000004	6e-45
253	0x80000004	-6e-45
254	0x00000004	6e-45
255	0x00000004	6e-45

exp_avg_sq f4 [128, 5]
0	0x3dac93c3	0.08426621
1	0x3ccbeb01	0.024892332
2	0x3df70d53	0.12063088
3	0x3b8983e1	0.0041966294
4	0x3b8983e1	0.0041966294
5	0x3d1db9f8	0.03850743
6	0x3d09f31e	0.03367912
7	0x3d12f0b6	0.03587409
8	0x3cb1eaee	0.021718469
9	0x3cb1eaee	0.021718469
10	0x3929ec3f	0.00016205104
11	0x39d3dad6	0.00040408102
12	0x370c4661	8.361037e-06
13	0x390753ce	0.00012905823
14	0x390753ce	0.00012905823
15	0x0005fa22	5.48908e-40
16	0x078b0d79	2.0922314e-34
17	0x01b0fbbd	6.5013416e-38
18	0x04050af6	1.5639108e-36
19	0x04050af6	1.5639108e-36
20	0x35ae801a	1.3001293e-06
21	0x37bb5c86	2.2335222e-05
22	0x2f568b5d	1.9512698e-10
23	0x37b82aee	2.19545e-05
24	0x37b82aee	2.19545e-05
25	0x3cb49806	0.022045147
26	0x3c8de290	0.017319947
27	0x3ca734ac	0.020410858
28	0x3c8cf1ab	0.01720508
29	0x3c8cf1ab	0.01720508
30	0x3cbb5350	0.022866875
31	0x3c4d3989	0.0125259245
32	0x3cbc3be7	0.022977782
33	0x3c525c5c	0.012839403
34	0x3c525c5c	0.012839403
35	0x19e5d9a8	2.3765956e-23
36	0x1db0a7f6	4.676048e-21
37	0x17fb8571	1.625418e-24
38	0x19be401d	1.9671435e-23
39	0x19be401d	1.9671435e-23
40	0x3ce5e6aa	0.02806409
41	0x3794ae4a	1.7724135e-05
42	0x3d889604	0.06669238
43	0x3c1f4f37	0.009723476
44	0x3c1f4f37	0.009723476
45	0x02322238	1.3087195e-37
46	0x000001f4	7e-43
47	0x000001f4	7e-43
48	0x000c8557	1.149859e-39
49	0x000c8557	1.149859e-39
50	0x3ccf0e89	0.025275486
51	0x38437cca	4.660784e-05
52	0x3da70b54	0.081564575
53	0x3d9bc553	0.07605996
54	0x3d9bc553	0.07605996
55	0x09619e07	2.7157694e-33
56	0x010c4894	2.576601e-38
57	0x0005c72a	5.30624e-40
58	0x0605cdd5	2.516574e-35
59	0x0605cdd5	2.516574e-35
60	0x3ddf4672	0.10902108
61	0x3dbb2f1e	0.09139846
62	0x3de1ffb0	0.11035097
63	0x3a809339	0.0009809501
64	0x3a809339	0.0009809501
65	0x33ed53ee	1.1051439e-07
66	0x384421c1	4.6761477e-05
67	0x358aad48	1.0332233e-06
68	0x39e66207	0.00043942055
69	0x39e66207	0.00043942055
70	0x3d289a20	0.04116261
71	0x3d0ec986	0.034860156
72	0x3d2d392d	0.042290855
73	0x3cb67715	0.02227358
74	0x3cb67715	0.02227358
75	0x3e610cfa	0.21977606
76	0x3db3b85b	0.087753974
77	0x3e911d99	0.28342894
78	0x3d3a9e71	0.045561258
79	0x3d3a9e71	0.045561258
80	0x28640991	1.2658617e-14
81	0x288c109b	1.5550324e-14
82	0x283dbfd4	1.0533204e-14
83	0x246c338c	5.1218004e-17
84	0x246c338c	5.1218004e-17
85	0x3c328381	0.010895611
86	0x3b10cdf2	0.002209541
87	0x3c627763	0.013822409
88	0x3bbd22be	0.005771964
89	0x3bbd22be	0.005771964
90	0x1f69ec0c	4.9534923e-20
91	0x020b987d	1.0255869e-37
92	0x1734f094	5.846479e-25
93	0x2291e835	3.9548188e-18
94	0x2291e835	3.9548188e-18
95	0x3d02f6d3	0.03197367
96	0x3ce4c93b	0.027927985
97	0x3cf93cb6	0.030424457
98	0x3c7e3e4e	0.015517784
99	0x3c7e3e4e	0.015517784
100	0x397e0466	0.00024224966
101	0x3a437aef	0.0007456978
102	0x3998a6d7	0.00029116005
103	0x3a1b04b7	0.00059134833
104	0x3a1b04b7	0.00059134833
105	0x38fb0988	0.00011970388
106	0x39b04278	0.0003361886
107	0x37a879c7	2.0083868e-05
108	0x395bddb2	0.00020968055
109	0x395bddb2	0.00020968055
110	0x3eaeb88a	0.34125167
111	0x3ea3e945	0.32013908
112	0x3ea9f8c2	0.331976
113	0x3d9ea73b	0.077467404
114	0x3d9ea73b	0.077467404
115	0x3f5b6b56	0.85710657
116	0x3f55dfb6	0.8354448
117	0x3f1a1bd8	0.60198736
118	0x3efc4649	0.49272373
119	0x3efc4649	0.49272373
120	0x3bccae70	0.0062463805
121	0x3be4f2cd	0.006986952
122	0x3b7449a8	0.0037275348
123	0x3b487205	0.003058554
124	0x3b487205	0.003058554
125	0x3d71aa0f	0.05900007
126	0x3d6d090e	0.057869963
127	0x3d69e325	0.057101388
128	0x3c3ca099	0.011512899
129	0x3c3ca099	0.011512899
130	0x39d54b9a	0.00040682853
131	0x3992b72f	0.00027983772
132	0x3ac51505	0.0015036172
133	0x3adbe67c	0.0016777064
134	0x3adbe67c	0.0016777064
135	0x3cf895bd	0.030344838
136	0x3cb97c30	0.022642225
137	0x3d0bc15a	0.03411994
138	0x3ca5ecde	0.020254549
139	0x3ca5ecde	0.020254549
140	0x3b879ce0	0.004138574
141	0x398a99dd	0.00026436048
142	0x3c561350	0.013066128
143	0x3ad7b2f0	0.0016456526
144	0x3ad7b2f0	0.0016456526
145	0x3df25694	0.1183292
146	0x3dc34e05	0.095363654
147	0x3dd3107c	0.103058785
148	0x3ddda0f6	0.108217165
149	0x3ddda0f6	0.108217165
150	0x30048b8f	4.8219645e-10
151	0x300ef591	5.200827e-10
152	0x2f648eca	2.0787208e-10
153	0x2f6174cc	2.0505125e-10
154	0x2f6174cc	2.0505125e-10
155	0x3e176769	0.14785542
156	0x3c258349	0.010102102
157	0x3e4970c3	0.19671921
158	0x3c04e96b	0.008112292
159	0x3c04e96b	0.008112292
160	0x3d6640fa	0.05621431
161	0x3d09dad8	0.03365597
162	0x3dc5a28d	0.09650145
163	0x3b59feb0	0.0033263378
164	0x3b59feb0	0.0033263378
165	0x3b835d5b	0.0040089316
166	0x3914dc6b	0.00014196492
167	0x3bf9b18a	0.0076200413
168	0x3b670c47	0.003525512
169	0x3b670c47	0.003525512
170	0x3c14aaf1	0.009073959
171	0x3bfcd0d5	0.0077153244
172	0x3c0edc2a	0.008719483
173	0x3b26830f	0.0025407707
174	0x3b26830f	0.0025407707
175	0x3c851075	0.016243199
176	0x3c67f83f	0.014158308
177	0x3ca3a2cb	0.019975087
178	0x3c073985	0.00825346
179	0x3c073985	0.00825346
180	0x3ddaad9a	0.10677643
181	0x3d88c58c	0.06678304
182	0x3df87ca3	0.121331476
183	0x3b576b60	0.0032870397
184	0x3b576b60	0.0032870397
185	0x1cc07667	1.27361e-21
186	0x1ca25640	1.0742556e-21
187	0x20c028f6	3.255317e-19
188	0x234fb424	1.1259639e-17
189	0x234fb424	1.1259639e-17
190	0x3ae79b6a	0.0017670218
191	0x3b1eefb9	0.0024251773
192	0x389cfd7a	7.485873e-05
193	0x3b040094	0.0020141946
194	0x3b040094	0.0020141946
195	0x3b96c2f6	0.004600878
196	0x3b58b677	0.0033067742
197	0x3bd0021b	0.0063479072
198	0x3afe795a	0.0019414828
199	0x3afe795a	0.0019414828
200	0x3ae5cb9a	0.0017531991
201	0x38713d24	5.751582e-05
202	0x3c931a45	0.017956862
203	0x3c8f7f49	0.017516749
204	0x3c8f7f49	0.017516749
205	0x3ea20c72	0.3165012
206	0x3ea0424a	0.31300575
207	0x3e9a5ee0	0.3015051
208	0x3d3af0d6	0.045639835
209	0x3d3af0d6	0.045639835
210	0x2049806d	1.7067855e-19
211	0x16ea6686	3.786944e-25
212	0x309167c0	1.0579626e-09
213	0x310300cc	1.9063462e-09
214	0x310300cc	1.9063462e-09
215	0x3c1adebe	0.00945252
216	0x3a9c5c53	0.001192937
217	0x3ca95791	0.020671638
218	0x3a799363	0.00095205585
219	0x3a799363	0.00095205585
220	0x00000000	0.0
221	0x00000000	0.0
222	0x00000000	0.0
223	0x00000000	0.0
224	0x00000000	0.0
225	0x3e307f1a	0.17235985
226	0x3e2b6802	0.16738895
227	0x3e2c3ffd	0.16821285
228	0x3cb7a13f	0.022415755
229	0x3cb7a13f	0.022415755
230	0x3c4ee0ee	0.01262687
231	0x3c6736dd	0.0141122015
232	0x3ae52cc5	0.0017484656
233	0x3c31a9a7	0.010843671
234	0x3c31a9a7	0.010843671
235	0x3ee0b3a1	0.43887046
236	0x3ed506e5	0.41606823
237	0x3eb817e0	0.35955715
238	0x3e29b816	0.1657413
239	0x3e29b816	0.1657413
240	0x3d1a9dc6	0.03774812
241	0x3cae5ffe	0.021286007
242	0x3d0d0d90	0.034436762
243	0x3cb7f4fc	0.022455685
244	0x3cb7f4fc	0.022455685
245	0x2ab91f64	3.2884383e-13
246	0x2d35ffc1	1.0345448e-11
247	0x2a9e5921	2.8128284e-13
248	0x28e23e82	2.5118149e-14
249	0x28e23e82	2.5118149e-14
250	0x1527909a	3.3839452e-26
251	0x003d6a16	5.640022e-39
252	0x18a603e6	4.291393e-24
253	0x181163e9	1.8791252e-24
254	0x181163e9	1.8791252e-24
255	0x2354e348	1.1540672e-17

exp_avg f4 [128]
0	0xbc58a05b	-0.0132218255
1	0xbd86243f	-0.06549882
2	0x3ba72d37	0.0051018256
3	0x00000004	6e-45
4	0xbadebe38	-0.0016993945
5	0xbd2c1717	-0.042014208
6	0xbd200e90	-0.039076388
7	0x00000004	6e-45
8	0x3cb1d62e	0.021708574
9	0x00000004	6e-45
10	0x3ab6dd96	0.0013951536
11	0x00000004	6e-45
12	0x3d42e91a	0.047585584
13	0x3c1d9221	0.009617359
14	0x3d9f14f9	0.07767672
15	0x3d339186	0.043839954
16	0x80000004	-6e-45
17	0xbcb347d9	-0.021884846
18	0x00000004	6e-45
19	0x3d06e07c	0.03292893
20	0x38fe4fbd	0.00012126516
21	0xbcd8376e	-0.026393618
22	0x3e30799d	0.17233892
23	0x3d8871e7	0.0666235
24	0x3bfbb585	0.007681551
25	0xbda8921d	-0.08230994
26	0xbc89de1f	-0.016829548
27	0xbd2a62f1	-0.041598264
28	0xbc825ed4	-0.015914358
29	0xbd2ae40c	-0.04172139
30	0x00000004	6e-45
31	0xbddc11a0	-0.10745549
32	0x3d94dd06	0.072687194
33	0xbd3ee44b	-0.046604436
34	0x353b14ea	6.969336e-07
35	0xbd5a90de	-0.053360812
36	0xbd003827	-0.03130355
37	0x00000004	6e-45
38	0xbaa69633	-0.0012709558
39	0xbbf40ca2	-0.007447795
40	0x3a94a7c5	0.0011341503
41	0x3e03b898	0.12863386
42	0x00000004	6e-45
43	0x3c870905	0.016483793
44	0x00000000	0.0
45	0xbc3b4959	-0.011431062
46	0xbcb86a98	-0.022511765
47	0x3dc167dd	0.094436385
48	0xbd88714e	-0.06662236
49	0x00000004	6e-45
50	0x00000004	6e-45
51	0x00000004	6e-45
52	0x3c1a2afc	0.009409662
53	0x3d71a522	0.058995374
54	0x3c4c5214	0.012470741
55	0xbcf1182e	-0.029430475
56	0x00000004	6e-45
57	0xbc0b1343	-0.008488479
58	0x3c23dc4d	0.010001254
59	0x00000004	6e-45
60	0xbddaf18d	-0.106906034
61	0xba9e9dfc	-0.0012101526
62	0x3cf5a333	0.029985046
63	0x00000000	0.0
64	0xbc983b7e	-0.018583056
65	0x00000004	6e-45
66	0xbd83d7e3	-0.064376615
67	0xbcacf77f	-0.02111411
68	0xbb57986b	-0.0032897245
69	0xbc72d20f	-0.01482059
70	0x00000004	6e-45
71	0x3b90f70c	0.0044239815
72	0x80000004	-6e-45
73	0x3b939bd3	0.0045046597
74	0x00000004	6e-45
75	0x3b7654f8	0.0037587266
76	0x00000004	6e-45
77	0xbd2e894d	-0.04261141
78	0x3c6b4d29	0.014361658
79	0x3c09f834	0.008420993
80	0xbc0a63ce	-0.008446647
81	0x00000004	6e-45
82	0x00000004	6e-45
83	0xbd63e58e	-0.055638842
84	0xb8756260	-5.850417e-05
85	0x3d1336ea	0.035941042
86	0xbcbb4bd8	-0.022863314
87	0x00000004	6e-45
88	0x3b99c532	0.004692697
89	0x3c21b3ad	0.009869498
90	0xbc24ad95	-0.010051151
91	0x00000004	6e-45
92	0x00000004	6e-45
93	0xbb65af83	-0.003504724
94	0x00000004	6e-45
95	0xbc4d01ab	-0.012512605
96	0xbdccb4fd	-0.09995458
97	0x3d723299	0.059130285
98	0x3abd7fc0	0.0014457628
99	0x00000000	0.0
100	0x3c2262b8	0.009911232
101	0xbbfdf998	-0.007750701
102	0x3b701d75	0.0036638652
103	0x3be5121a	0.0069906833
104	0x3a0ae1f1	0.000529795
105	0xbc364e9e	-0.011127142
106	0xbd8afc89	-0.067864485
107	0xbb8ff89d	-0.0043936507
108	0x00000004	6e-45
109	0x00000004	6e-45
110	0xbdca7b01	-0.098867424
111	0x3db58d32	0.088648215
112	0x3b52117c	0.0032053879
113	0x00000000	0.0
114	0x00000004	6e-45
115	0xbd5adf54	-0.05343564
116	0xbc90d91c	-0.01768165
117	0x3ded100d	0.11575327
118	0xbc24afad	-0.01005165
119	0x00000004	6e-45
120	0xbe6f0529	-0.23341812
121	0x00000004	6e-45
122	0x00000004	6e-45
123	0xbadb7196	-0.0016742225
124	0x3d37c5a0	0.044866204
125	0x00000000	0.0
126	0x80000004	-6e-45
127	0x00000000	0.0
